best_net.pkl (torch, 34771 bytes, 36 tensors)

weight f4 [64, 32]
-0.012908042 -0.03412761 0.16113763 0.32667324 0.09020743 0.03225125 -0.13554859 -0.4511875
0.012311439 -0.30795482 0.27401266 0.027135544 0.24781789 0.21984671 0.06607702 0.23407604
-0.2703726 0.1527166 -0.5066877 -0.18081103 -0.26140058 -0.37884983 0.2442644 -0.47874966
0.43638688 -0.27018636 0.23412171 0.08974028 0.07449077 0.23655123 0.115215026 0.41022748
-0.026356647 0.015321269 0.04586556 -0.1767318 0.052677207 -0.06325025 -0.08326213 0.16782802
-0.12031536 0.16167708 -0.000582729 -0.13036428 -0.0046131215 -0.25460497 0.098081194 -0.19591062
0.22902034 -0.19867638 -0.018352091 -0.03229189 -0.113215275 0.18197915 -0.010369166 -0.045886204
-0.09331853 -0.24976943 -0.1178447 0.05345429 0.04233133 0.076721326 -0.19465353 -0.0769267
-0.10112444 0.013633467 -0.17098811 -0.30815077 0.052925844 -0.21286139 0.33550355 0.14567389
0.16930954 0.18627734 -0.113820866 0.091812804 -0.19578387 0.009209363 -0.12227418 -0.026062071
0.0034241993 -0.034782685 0.13722646 -0.005959207 -0.020315014 -0.042241454 -0.11546259 -0.019449588
0.099847175 -0.011175944 0.23851793 0.023690078 0.18571012 0.16261804 -0.118136525 0.1496688
-0.092150465 -0.0024672586 -0.17389159 -0.20637874 -0.12536865 -0.27097335 0.09785455 -0.21526788
0.3041696 -0.013887451 0.20685066 0.21651512 0.067022525 0.21099317 -0.024477877 0.11423338
-0.114478335 0.13291837 -0.09960901 0.1619807 -0.100212686 0.07829815 -0.18534654 -0.044097252
-0.16400997 -0.1434445 0.020050032 -0.23063833 0.13289304 -0.246444 0.2566907 0.039558664
-0.032362323 -0.018873453 0.011232423 -0.004594943 0.07176895 -0.06828518 0.08769432 -0.026408516
0.08114249 0.15656011 -0.093073 0.19189127 -0.15215237 -0.072371386 -0.012846905 -0.26842225
0.09410345 -0.16101392 0.1449834 0.07554879 0.09669594 0.25686452 -0.06978495 0.26993093
-0.18850136 0.026108038 -0.18761076 -0.20142843 -0.15439363 -0.16086261 0.06892428 -0.07672395
-0.007672841 -0.00085914985 0.007558307 0.12963516 0.12279006 0.11167733 0.115624085 -0.039524443
-0.13559888 -0.0985423 -0.2190217 -0.0059780427 -0.027625712 0.034164317 0.15051304 -0.17043498
0.12349616 -0.24513929 0.045650728 0.01241879 0.14129908 0.2218958 0.17086242 0.15133499
-0.07066644 0.036630087 -0.26813188 0.052952368 -0.20563495 0.12543252 -0.077406906 -0.013053004
-0.13036516 0.016825762 -0.059162658 0.2888495 0.24093074 0.20333849 0.25057742 -0.15861474
-0.12144727 -0.31794533 -0.25173795 -0.1050002 -0.0634962 0.2510595 0.028914073 0.29719576
0.035991117 0.06661254 0.059603952 -0.18976322 0.044018093 -0.3554651 -0.017859899 -0.27996942
-0.025242638 0.055604983 0.084579766 0.323208 0.2080956 0.12721148 0.13624404 -0.1641081
-0.02794143 0.018171938 -0.018358551 -0.053172514 -0.02220963 -0.092803665 -0.027494814 -0.043977268
0.006236003 -0.031302985 0.12889796 0.021537565 0.21666446 0.00084450125 0.089852884 -0.13461456
-0.059167232 -0.08228832 -0.054356866 0.0077517377 -0.018487617 -0.054046016 -0.020411942 -0.044248186
0.0033769552 -0.015082748 0.040174797 -0.055884555 0.11318551 -0.037219558 0.07686265 -0.23385686
00000000: 417c 53bc 65c9 0bbd 4301 253e b741 a73e
00000010: acbe b83d e319 043d 40cd 0abe 0c02 e7be
00000020: ebb5 493c 41ac 9dbe 634b 8c3e 5c4b de3c
00000030: f9c3 7d3e 7f1f 613e 6353 873d a1b1 6f3e
00000040: 476e 8abe be61 1c3e 49b6 01bf 8726 39be
00000050: 4cd6 85be 9bf8 c1be 7220 7a3e ad1e f5be
00000060: 1a6e df3e de55 8abe 9abd 6f3e c0c9 b73d
00000070: 9e8e 983d 7c3a 723e dbf5 eb3d 5609 d23e
00000080: e5e9 d7bc 0f06 7b3c 87dd 3b3d 2ef9 34be
00000090: 0ec4 573d 5989 81bd 5685 aabd 1cdb 2b3e
000000a0: e667 f6bd ad8e 253e 48c2 18ba 377e 05be
000000b0: ab29 97bb 955b 82be cbde c83d cb9c 48be
000000c0: 4f84 6a3e d271 4bbe 2057 96bc 8044 04bd
000000d0: 69dd e7bd be58 3a3e 6fe3 29bc 2cf3 3bbd
000000e0: c91d bfbd 8fc3 7fbe 9058 f1bd e3f2 5a3d
000000f0: 9e63 2d3d 1220 9d3d 4153 47be bf8b 9dbd
00000100: 551a cfbd e85e 5f3c 8217 2fbe f0c5 9dbe
00000110: c5c8 583d 56f8 59be 1fc7 ab3e 892b 153e
00000120: 7b5f 2d3e 7dbf 3e3e ea1a e9bd 5a08 bc3d
00000130: 917b 48be dee2 163c e36a fabd 2080 d5bc
00000140: 8868 603b 4a78 0ebd 1885 0c3e 7445 c3bb
00000150: ac6b a6bc 6005 2dbd a677 ecbd be54 9fbc
00000160: ad7c cc3d 4e1b 37bc 0b3e 743e b211 c23c
00000170: cb2a 3e3e 5885 263e 90f1 f1bd c742 193e
00000180: 62b9 bcbd bbb1 21bb a310 32be f354 53be
00000190: a460 00be 05bd 8abe f767 c83d 2f6f 5cbe
000001a0: 1ebc 9b3e 3188 63bc a9d0 533e 24b6 5d3e
000001b0: 1b43 893d 980e 583e d485 c8bc 31f3 e93d
000001c0: 9e73 eabd c11b 083e cfff cbbd 45de 253e
000001d0: 4f3c cdbd c85a a03d 7ccb 3dbe 529f 34bd
000001e0: 3bf2 27be 1de3 12be f73f a43c 742c 6cbe
000001f0: 1d15 083e d15b 7cbe f76c 833e 4408 223d
00000200: 5b8e 04bd 809c 9abc 3208 383c 2d91 96bb
00000210: 99fb 923d 1ad9 8bbd 1499 b33d ac56 d8bc
00000220: 092e a63d 4b51 203e 0f9d bebd 257f 443e
00000230: d5cd 1bbe 7337 94bd d37b 52bc a46e 89be
00000240: 4fb9 c03d d5e0 24be 8776 143e 53b9 9a3d
00000250: 8508 c63d bf83 833e 69eb 8ebd 6334 8a3e
00000260: 8006 41be 86e0 d53c 091d 40be 4143 4ebe
00000270: 5d19 1ebe 2bb9 24be 2c28 8d3d 7221 9dbd
00000280: 756c fbbb 9238 61ba adab f73b 14bf 043e
00000290: 5b79 fb3d 16b7 e43d 52cc ec3d 62e4 21bd
000002a0: 6fda 0abe 8cd0 c9bd 3947 60be 75e3 c3bb
000002b0: 514f e2bc e2ef 0b3d 1720 1a3e 8286 2ebe
000002c0: 8eeb fc3d cb05 7bbe 42fc 3a3d 2e78 4b3c
000002d0: b5b0 103e a738 633e 8ff6 2e3e 8ff7 1a3e
000002e0: 91b9 90bd 6e09 163d 9548 89be 95e4 583d
000002f0: f891 52be 6271 003e 8387 9ebd 44dc 55bc
00000300: 727e 05be 2ed6 893c 8b54 72bd 15e4 933e
00000310: 8cb6 763e f737 503e af4b 803e e76b 22be
00000320: 59b9 f8bd bbc9 a2be cce3 80be 580a d7bd
00000330: 4c0a 82bd df8a 803e 35dd ec3c 0b2a 983e
00000340: 6c6b 133d 286c 883d 4623 743d 4a51 42be
00000350: 514c 343d 86ff b5be ec4e 92bc 2758 8fbe
00000360: a6c9 cebc 0dc2 633d 2838 ad3d 857b a53e
00000370: 0317 553e ba43 023e 8f83 0b3e f40b 28be
00000380: 6de5 e4bc 51dd 943c ac64 96bc 6ccb 59bd
00000390: f8f0 b5bc d90f bebd ce3c e1bc 8221 34bd
000003a0: 6257 cc3b 8f37 00bd d4fd 033e 8c6f b03c
000003b0: 4add 5d3e 8561 5d3a ca04 b83d 66d8 09be
000003c0: 5759 72bd c786 a8bd 4ea5 5ebd 4a02 fe3b
000003d0: 5873 97bc 5b5f 5dbd f236 a7bc 963d 35bd
000003e0: e84f 5d3b a11d 77bc 548e 243d 34e7 64bd
000003f0: cecd e73d 8973 18bd 2a6a 9d3d 2c78 6fbe

in_proj_weight f4 [6, 2]
0.085122995 0.23705153 0.106980756 -0.08136357 -0.0102364095 0.102242045 0.038093112 -0.2915656
0.28190154 -0.83646977 0.21738456 -0.6117198
00000000: f754 ae3d a3bd 723e ba18 db3d f2a1 a6bd
00000010: 9db6 27bc 4764 d13d 8607 1c3d 1648 95be
00000020: 6655 903e e222 56bf 0f9a 5e3e ab99 1cbf

in_proj_bias f4 [6]
0.06582388 0.24272919 -0.07157435 -0.08765758 0.042060442 -0.3707296
00000000: acce 863d 008e 783e 9395 92bd d185 b3bd
00000010: 9247 2c3d 45d0 bdbe

weight f4 [2, 2]
0.2060487 0.31781957 -0.44941863 0.25596413
00000000: 6efe 523e 3fb9 a23e 331a e6be bb0d 833e

bias f4 [2]
-0.42677882 -0.08830516
00000000: c182 dabe 56d9 b4bd

weight f4 [2, 2, 3]
0.16182312 0.06461584 -0.08096777 -0.09250532 -0.010919789 0.3776462 0.0018829124 0.1581834
-0.45348996 -0.33945602 -0.029401336 -0.109442696
00000000: f6b4 253e 4f55 843d 6ed2 a5bd 6e73 bdbd
00000010: eae8 32bc d85a c13e 0ecc f63a d4fa 213e
00000020: d62f e8be 2ecd adbe 12db f0bc 7e23 e0bd

weight f4 [2]
0.53010917 0.868498
00000000: 3cb5 073f e355 5e3f

bias f4 [2]
0.83576685 0.82856363
00000000: d1f4 553f bf1c 543f

running_mean f4 [2]
-0.12536278 0.23482929
00000000: 1a5f 00be 1777 703e

running_var f4 [2]
0.00018065229 0.00216543
00000000: 7b6d 3d39 e3e9 0d3b

weight f4 [2, 2, 3]
-0.31653824 -0.12114995 -0.2023977 0.39184114 -0.10097222 -0.23615861 -0.11899495 0.22301026
0.01748559 0.31672063 0.28893393 0.33215764
00000000: 4d11 a2be 771d f8bd 5841 4fbe 679f c83e
00000010: 86ca cebd 90d3 71be a0b3 f3bd cd5c 643e
00000020: f13d 8f3c 3529 a23e 26ef 933e 9110 aa3e

weight f4 [2]
1.0284524 0.91798973
00000000: 54a4 833f 6001 6b3f

bias f4 [2]
-0.04004307 -0.3160601
00000000: 3404 24bd a1d2 a1be

running_mean f4 [2]
-0.44398847 0.99922913
00000000: 7552 e3be 7bcd 7f3f

running_var f4 [2]
0.0611354 0.02515221
00000000: 1d69 7a3d 020c ce3c

weight f4 [2, 2, 3]
-0.3640824 0.06883157 -0.08785826 0.0019319035 1.0039366 0.029168468 1.0436448 -0.07228366
-0.10199617 -0.006942932 -0.1812614 0.038332514
00000000: 0269 babe 91f7 8c3d 08ef b3bd ed37 fd3a
00000010: ff80 803f b6f2 ee3c 2796 853f 7509 94bd
00000020: 5ee3 d0bd 8981 e3bb 979c 39be 8e02 1d3d

weight f4 [2]
0.90736437 0.8010635
00000000: 0849 683f 7f12 4d3f

bias f4 [2]
-0.17112595 -0.61427385
00000000: a43b 2fbe 0d41 1dbf

running_mean f4 [2]
0.05551165 0.11664593
00000000: 2f60 633d 10e4 ee3d

running_var f4 [2]
0.07283335 0.051460825
00000000: a729 953d 96c8 523d

weight f4 [2, 2, 3]
0.05880408 -0.0191049 0.1777829 0.33524084 0.41711664 -0.2110229 0.39573792 0.23086251
0.049183358 0.509577 -0.07862385 0.028591625
00000000: 8cdc 703d e181 9cbc b80c 363e b0a4 ab3e
00000010: 5090 d53e 6316 58be 299e ca3e 3967 6c3e
00000020: 7d74 493d a373 023f 8b05 a1bd fc38 ea3c

weight f4 [2]
0.7078744 0.7852761
00000000: 4237 353f db07 493f

bias f4 [2]
0.6144334 0.11669749
00000000: 824b 1d3f 18ff ee3d

running_mean f4 [2]
0.11596209 0.21658346
00000000: 887d ed3d 0ec8 5d3e

running_var f4 [2]
0.100823805 0.17859964
00000000: b67c ce3d d3e2 363e

weight f4 [2, 2, 3]
-0.5950046 0.4908886 0.16506568 -0.025350193 -0.052041717 -0.21693435 -0.31948322 0.2488926
-0.11923964 -0.18868776 0.06703173 -0.26325804
00000000: 3952 18bf c055 fb3e fa06 293e 35ab cfbc
00000010: b229 55bd 0a24 5ebe 4e93 a3be b4dd 7e3e
00000020: ea33 f4bd 5d37 41be ef47 893d c2c9 86be

weight f4 [2]
0.72816014 0.7505944
00000000: b468 3a3f f426 403f

bias f4 [2]
0.65527105 0.79065293
00000000: d8bf 273f 3b68 4a3f

running_mean f4 [2]
-0.038557135 -0.22724582
00000000: 16ee 1dbd 21b3 68be

running_var f4 [2]
0.24297263 0.11824635
00000000: d1cd 783e 242b f23d

weight f4 [2, 2, 3]
0.08141964 -0.01686094 -0.6173133 0.068443805 0.03530429 -0.52159417 0.061036848 -0.4259423
-0.0039731627 0.0024312714 0.79754895 0.09822848
00000000: 57bf a63d f41f 8abc 3f08 1ebf 442c 8c3d
00000010: 3b9b 103d 3287 05bf c601 7a3d 1c15 dabe
00000020: 4e31 82bb f755 1f3b 2b2c 4c3f 032c c93d

weight f4 [2]
0.07507164 0.14005196
00000000: 29bf 993d c869 0f3e

bias f4 [2]
0.14427495 0.07350559
00000000: d0bc 133e 198a 963d

running_mean f4 [2]
-0.7540831 0.5251695
00000000: 970b 41bf 8271 063f

running_var f4 [2]
0.25785708 0.10250123
00000000: d805 843e 2aec d13d

weight f4 [32, 64]
0.05970377 -0.053771667 -0.029707232 0.025775084 -0.0031489755 0.021135857 0.05935114 -0.00094130484
-0.031748924 -0.02801776 -0.05725946 -0.057386655 0.010845777 0.08202555 0.03765241 0.0098826485
0.027909173 0.023383098 -0.02131283 -0.017250678 -0.056908656 0.08195115 -0.030073488 0.017065132
0.05971044 0.048269745 -0.037189744 -0.017127024 0.068132356 -0.074021935 -0.013674764 -0.104190506
-0.0057466174 -0.07376648 -0.013548632 0.033920664 -0.00059672253 0.0037420315 0.038470533 -0.03696788
-0.0073819356 -0.027507978 0.005917084 -0.023275359 -0.02513272 0.033243194 0.06162967 0.039933424
-0.0143739795 -0.05045269 0.0621634 -0.014532479 -0.009822059 0.0018582908 0.060277518 -0.0154145695
0.026703896 -0.0054028193 0.01218372 0.0019251963 -0.049553245 -0.016350327 0.08339446 0.024966372
0.10869306 0.01904882 0.027194204 0.012002165 0.011737021 0.075381696 -0.088972025 0.017045723
0.04216221 0.067359366 0.09741706 -0.058751117 0.08515097 -0.009150199 0.06538385 0.0131825665
0.0019958962 0.010020573 0.1073718 0.030393492 -0.0511909 -0.15557751 0.0025475079 -0.046417274
0.118634 0.029776057 0.11716479 0.045299865 -0.1063458 -0.105629474 -0.0067852354 -0.15227087
0.005899839 -0.081204794 0.033261035 0.062208597 0.0019409881 -0.012644408 0.07222761 0.015059047
-0.0051497025 0.044269558 -0.0377792 -0.014332558 0.0047951546 -0.006264509 0.0031606976 -0.004192895
-0.017668445 -0.08514927 -0.04214921 0.042597007 -0.058245886 0.0049564773 -0.05966506 -0.022090526
-0.049477562 0.09321954 0.06022629 0.01029345 0.09231921 0.095058836 -0.20468575 -0.019817116
-0.0022971586 0.044905853 0.10067745 -0.034906138 0.06981581 -0.05891687 0.10477402 0.13013814
0.06569022 0.12025557 0.12805435 -0.100133896 -0.11150426 -0.036198214 -0.07290451 -0.045564342
-0.030965839 0.019030392 0.15527841 0.0075351037 -0.0643037 -0.019678174 0.12204828 0.014667125
-0.18809086 -0.08662904 -0.0805355 -0.059988283 0.15354149 0.18500124 0.00011686994 -0.21610484
0.044207748 0.014395484 0.025290482 0.066447884 -0.0070668897 0.022543635 -0.020249832 0.003953207
-0.103910804 0.059864722 -0.040446285 0.069534995 0.008061697 0.021494025 0.020866912 0.033972535
0.013627826 -0.051771317 0.028250216 0.042312913 0.0014651901 0.025128845 -0.016242705 0.1418702
0.045274578 -0.13475293 -0.132585 -0.011404608 -0.1075637 -0.1727858 0.1567978 0.0031968188
-0.27739263 -0.06788312 -0.04894949 -0.2198204 0.1312073 -0.07988314 0.06400814 -0.08350933
0.015641386 0.11412916 -0.08880864 -0.1469513 -0.13257977 -0.1574409 0.0054437267 0.061223757
-0.017078778 0.027429305 0.18584254 0.15114397 -0.03586018 -0.10503109 -0.1113926 -0.018124454
-0.07271782 0.040796377 -0.04862053 0.0328384 -0.105076104 -0.22961235 0.026351009 0.14848313
-0.025567487 -0.062449437 0.10521227 0.005729994 -0.016307767 0.06732006 -0.07029965 0.048366204
0.01508287 -0.048110176 0.002288436 -0.05246014 0.05280582 0.063940056 0.045015063 -0.0011400438
-0.012015421 -0.019037629 -0.084524415 0.06873578 0.0708552 -0.03496663 -0.056427322 -0.0060930992
0.009704885 0.036217827 0.03134356 0.056695987 0.042036366 0.10705615 0.072482765 0.08971758
00000000: f18b 743d ae3f 5cbd 955c f3bc 4526 d33c
00000010: 0b5f 4ebb 1b25 ad3c 2e1a 733d e6c1 76ba
00000020: 290b 02bd 8085 e5bc e588 6abd 450e 6bbd
00000030: 7cb2 313c 03fd a73d 6a39 1a3d d5ea 213c
00000040: c7a1 e43c e98d bf3c 3e98 aebc 4b51 8dbc
00000050: 0d19 69bd 01d6 a73d ad5c f6bc 2dcc 8b3c
00000060: ef92 743d 7fb6 453d 4654 18bd f94d 8cbc
00000070: fa88 8b3d d098 97bd 1e0c 60bc d561 d5bd
00000080: 1f4e bcbb e112 97bd 15fb 5dbc 65f0 0a3d
00000090: 5f6d 1cba df3c 753b 4793 1d3d a26b 17bd
000000a0: 2ae4 f1bb 6958 e1bc 19e4 c13b f7ab bebc
000000b0: 22e3 cdbc 042a 083d 656f 7c3d 3b91 233d
000000c0: d780 6bbc 7ba7 4ebd 0d9f 7e3d a319 6ebc
000000d0: b4ec 20bc e491 f33a 8fe5 763d 648d 7cbc
000000e0: 21c2 da3c 220a b1bb 3a9e 473c de56 fc3a
000000f0: 58f8 4abd 1ff1 85bc b7ca aa3d 4786 cc3c
00000100: 789a de3d 450c 9c3c 61c6 de3c bba4 443c
00000110: a24c 403c b861 9a3d f736 b6bd 79a3 8b3c
00000120: 48b2 2c3d b5f3 893d 9882 c73d 03a5 70bd
00000130: a263 ae3d b7ea 15bc f8e7 853d b1fb 573c
00000140: 95cd 023b 542d 243c bfe5 db3d c6fb f83c
00000150: 8dad 51bd b64f 1fbe 17f4 263b 0a20 3ebd
00000160: 62f6 f23d ebec f33c 18f4 ef3d 5a8c 393d
00000170: d4cb d9bd 4454 d8bd ae56 debb e5ec 1bbe
00000180: 7053 c13b b34e a6bd b93c 083d 71ce 7e3d
00000190: c168 fe3a 7e2a 4fbc 12ec 933d 39ba 763c
000001a0: d6be a8bb ff53 353d 5dbe 1abd 1bd3 6abc
000001b0: ac20 9d3b 8346 cdbb b523 4f3b 8d64 89bb
000001c0: 6abd 90bc be62 aebd a6a4 2cbd 337a 2e3d
000001d0: 3d93 6ebd f269 a23b 5a63 74bd 31f7 b4bc
000001e0: fca8 4abd e3e9 be3d d8af 763d dca5 283c
000001f0: db11 bd3d 35ae c23d 2499 51be 8157 a2bc
00000200: ed8b 16bb 33ef 373d fb2f ce3d bdf9 0ebd
00000210: 97fb 8e3d d152 71bd c393 d63d ef42 053e
00000220: 9888 863d 8d48 f63d ae20 033e 0013 cdbd
00000230: 585c e4bd 9444 14bd f64e 95bd ada1 3abd
00000240: 12ac fdbc a0e5 9b3c 4e01 1f3e 08e9 f63b
00000250: a9b1 83bd 1f34 a1bc 73f4 f93d 624e 703c
00000260: e49a 40be 916a b1bd ccef a4bd 46b6 75bd
00000270: fb39 1d3e f770 3d3e 1218 f538 964a 5dbe
00000280: 2f13 353d 09db 6b3c fc2d cf3c d415 883d
00000290: 5e91 e7bb 6ead b83c fae2 a5bc e789 813b
000002a0: 30cf d4bd b634 753d 01ab 25bd 5d68 8e3d
000002b0: 3515 043c 3d14 b03c 16f1 aa3c c926 0b3d
000002c0: 3f47 5f3c 290e 54bd ff6c e73c 4e50 2d3d
000002d0: 9f0b c03a 02db cd3c 6c0f 85bc 6c46 113e
000002e0: d671 393d acfc 09be 5dc4 07be 65da 3abc
000002f0: 5b4a dcbd c3ee 30be 9a8f 203e b881 513b
00000300: 6806 8ebe 4e06 8bbd 437f 48bd 9918 61be
00000310: 355b 063e c699 a3bd b316 833d f106 abbd
00000320: 5d22 803c 8dbc e93d 4ee1 b5bd 677a 16be
00000330: fec2 07be 3038 21be 4a61 b23b c3c5 7a3d
00000340: cbe8 8bbc 6cb3 e03c 824d 3e3e 7cc5 1a3e
00000350: 20e2 12bd 8a1a d7bd ce21 e4bd bc79 94bc
00000360: 15ed 94bd 1a1a 273d 5226 47bd 8f81 063d
00000370: 2432 d7bd 801f 6bbe 12de d73c f60b 183e
00000380: e872 d1bc fbca 7fbd 8879 d73d acc2 bb3b
00000390: de97 85bc 1adf 893d 43f9 8fbd a41b 463d
000003a0: 241e 773c 2d0f 45bd 96f9 153b 72e0 56bd
000003b0: ea4a 583d 01f3 823d b761 383d 866d 95ba
000003c0: 54dc 44bc cdf4 9bbc 231b adbd 58c5 8c3d
000003d0: 881c 913d 2b39 0fbd 5620 67bd 9fa8 c7bb
000003e0: 3d01 1f3c 2559 143d 1b62 003d 0d3a 683d
000003f0: 532e 2c3d 4140 db3d d871 943d dabd b73d
