net.pkl (torch, 34423 bytes, 36 tensors)

weight f4 [64, 32]
000000 3e d2 5d bc 9b 7e dd bc 05 0b 22 3e df f0 a2 3e
       -0.013538895 -0.02703791 0.15824516 0.31824395
000010 e5 1d b6 3d 04 c7 09 3d 34 7f 07 be 36 45 e8 be
       0.08892421 0.03363706 -0.13232118 -0.45365304
000020 17 2d 3c 3c 6e 25 9e be 17 c8 87 3e b8 03 c4 3c
       0.01148536 -0.30887932 0.26519844 0.023927554
000030 0a 01 7f 3e d8 6a 5d 3e ba 2c 80 3d e7 d9 6f 3e
       0.2490274 0.21622789 0.06258531 0.23422967
000040 bc 53 8b be 67 1a 1d 3e 8d d5 01 bf 77 6e 36 be
       -0.27212322 0.15342103 -0.5071648 -0.17815576
000050 86 7f 81 be 09 0f c4 be 23 f6 6f 3e 47 1e f6 be
       -0.25292605 -0.3829272 0.23433737 -0.48069975
000060 b5 66 dc 3e 68 69 8a be b3 7c 73 3e 2d 3e ae 3d
       0.4304711 -0.27033544 0.23778038 0.08507953
000070 2d 26 90 3d cd c1 73 3e 9a 09 eb 3d 25 0d d3 3e
       0.070385315 0.23804398 0.11476441 0.41220966
000080 27 ca d3 bc eb a9 0b 3d ce cd 35 3d f4 77 3e be
       -0.02585323 0.034097593 0.044385724 -0.18600446
000090 b3 a7 4b 3d 8a 54 99 bd 79 39 ab bd 97 ca 29 3e
       0.049720477 -0.07486828 -0.083605714 0.16581188
0000a0 02 70 ff bd af dc 2d 3e 4d 69 1c 3c fc 71 f5 bd
       -0.12472536 0.16978715 0.00954659 -0.119846314
0000b0 99 82 35 bb 4b 5d 7e be 1b af c5 3d 08 31 47 be
       -0.002769625 -0.24840276 0.09652539 -0.19452298
0000c0 49 be 72 3e f8 9b 42 be 59 bc c3 bc 8e be f9 bc
       0.237054 -0.1900481 -0.023893522 -0.030486371
0000d0 af 23 d8 bd 92 ac 42 3e b2 f0 11 bb c0 f1 42 bd
       -0.10553681 0.19011143 -0.002226871 -0.047593832
0000e0 0f 89 b4 bd b4 68 79 be 16 4b f7 bd e1 8b 4d 3d
       -0.08815204 -0.24356347 -0.120748684 0.050182227
0000f0 8a 44 30 3d 1f 28 9a 3d 9e 44 45 be 8c c4 a2 bd
       0.043034114 0.07527184 -0.19264457 -0.079476446
000100 87 6e cc bd 38 e8 80 3c 54 c1 2f be e6 7d a2 be
       -0.09982019 0.01573573 -0.17163593 -0.31736678
000110 f4 5e 54 3d 78 9e 56 be 17 af af 3e 4d a0 10 3e
       0.051848367 -0.20958889 0.3431327 0.1412365
000120 17 5a 2d 3e d2 ff 3f 3e 92 32 f9 bd 2c 88 b9 3d
       0.16928898 0.18749931 -0.12167849 0.09059176
000130 9f f9 4a be 4d 0e 9f 3b 3c 29 09 be 4d cd c7 bc
       -0.19821785 0.0048539997 -0.13394636 -0.024389887
000140 37 12 c2 3b 36 9d 26 bd 9b 62 0c 3e 28 39 fe bb
       0.0059225815 -0.04067727 0.1370949 -0.0077582784
000150 c3 e0 31 bc 17 18 37 bd 64 74 00 be 67 e3 5e bc
       -0.01085681 -0.04470071 -0.125444 -0.013604022
000160 2e 5d bf 3d 88 a0 3a bc 9d bf 77 3e 27 e8 af 3c
       0.093439445 -0.011390813 0.24194188 0.021473004
000170 4c 24 38 3e da 70 27 3e a6 de f5 bd 7e 32 19 3e
       0.17982596 0.16351643 -0.120053574 0.14960667
000180 41 b8 b9 bd 79 41 15 3b 3f d1 34 be 0a 85 57 be
       -0.09068347 0.002277462 -0.17657946 -0.21046844
000190 35 a8 04 be 3a 8e 8d be 08 44 c9 3d 4c 93 66 be
       -0.12954791 -0.27647573 0.09827429 -0.22517127
0001a0 33 12 9b 3e a2 a9 2e bc 4c 6c 59 3e f1 8b 6c 3e
       0.30287322 -0.010660561 0.21232718 0.23100258
0001b0 14 06 99 3d c7 c8 5f 3e 16 70 bd bc a5 a6 e5 3d
       0.074718624 0.21853934 -0.023124736 0.112134255
0001c0 36 c2 d3 bd cb de 0e 3e 09 2a d5 bd 7e d6 2f 3e
       -0.10339777 0.13952176 -0.10408408 0.17171666
0001d0 29 d3 ba bd d4 25 a9 3d 8c 61 3c be b4 0f 3f bd
       -0.09122307 0.08259168 -0.18396586 -0.046645835
0001e0 04 5a 26 be a9 5a 12 be d1 09 94 3c bf 59 6a be
       -0.16245276 -0.14292397 0.018071087 -0.22885798
0001f0 45 e8 0e 3e 16 ae 7e be 72 7c 84 3e 9c 3a 18 3d
       0.13955791 -0.24871096 0.25876194 0.03716527
000200 b6 47 f7 bc 84 4f ba bc aa 23 5b 3c b1 e9 78 bc
       -0.030185562 -0.022742994 0.013375202 -0.015192435
000210 1a 69 97 3d e1 74 95 bd c8 8b bf 3d d9 95 b1 bc
       0.073930934 -0.072976835 0.09352833 -0.021677898
000220 ae db 9d 3d 53 e4 1c 3e a1 30 c1 bd 70 4f 48 3e
       0.07707916 0.15321474 -0.09433103 0.19561553
000230 bd 02 1d be 82 c5 93 bd 49 e9 8e bc ac ec 88 be
       -0.15333076 -0.07215406 -0.017445223 -0.26743066
000240 25 55 bf 3d a5 87 24 be 7f 91 0e 3e b3 5a 8b 3d
       0.09342412 -0.1606737 0.1392269 0.06804409
000250 c4 cc ce 3d 09 87 81 3e 04 70 a0 bd fc 66 8a 3e
       0.1009765 0.25298336 -0.07833865 0.27031696
000260 12 a0 3f be 2c 44 df 3c a8 9a 3f be d8 9b 4d be
       -0.18713406 0.027254187 -0.1871134 -0.20078981
000270 dc be 21 be 60 a7 29 be 3d 1b 8e 3d 3d 64 a7 bd
       -0.15795463 -0.16567755 0.06938789 -0.08173416
000280 84 3b 53 bc 42 cd 03 bb 42 ef eb 3b 67 77 05 3e
       -0.012892608 -0.0020111357 0.0072001526 0.1303383
000290 16 bc f9 3d 8d 46 f3 3d 59 b2 f7 3d 5b 5c 16 bd
       0.12194078 0.11878691 0.12094564 -0.03670917
0002a0 b5 43 05 be 08 03 c2 bd f4 5e 5a be 7b f4 c0 b7
       -0.1301411 -0.094732344 -0.21325284 -2.3002029e-05
0002b0 98 c6 d3 bc 09 e3 08 3d 60 c9 15 3e 28 60 2b be
       -0.025851533 0.033419643 0.146276 -0.167359
0002c0 e5 16 05 3e 8b 3e 7a be ce 63 83 3d aa b1 91 3c
       0.12997015 -0.24437921 0.064155206 0.017784912
0002d0 41 33 14 3e e8 6b 68 3e 99 ed 26 3e 90 2b 1e 3e
       0.14472677 0.22697413 0.16301574 0.15446305
0002e0 3b 50 82 bd e7 78 f5 3c a2 c0 89 be b9 69 67 3d
       -0.06362959 0.029964877 -0.2690478 0.05649731
0002f0 d6 20 54 be 42 13 09 3e a9 21 9f bd 56 5a a6 bc
       -0.20715651 0.13386253 -0.07770092 -0.020306747
000300 98 cf 06 be a4 18 64 3c a3 28 6e bd d4 57 93 3e
       -0.13165128 0.01392189 -0.058144223 0.28777945
000310 a8 12 7f 3e 84 d8 4f 3e 33 bd 86 3e ec 1d 1d be
       0.2490946 0.20297438 0.26316223 -0.15343446
000320 d5 61 fc bd 15 81 a3 be 75 f1 7d be 68 92 e0 bd
       -0.123233475 -0.3193442 -0.2479914 -0.10965425
000330 95 09 79 bd d6 d0 7e 3e 83 0a fc 3c ec b7 99 3e
       -0.060800154 0.24884352 0.030766731 0.30023134
000340 5e b0 11 3d 29 03 8e 3d 7d d9 76 3d 5a 27 45 be
       0.035568587 0.069341965 0.060266007 -0.19253293
000350 aa db 3a 3d 5a 6f b8 be 9e e5 be bc dc c2 8e be
       0.045619644 -0.36022455 -0.02330285 -0.2788304
000360 6f db c2 bc 31 f9 39 3d 80 3e a5 3d 3e a7 a5 3e
       -0.023786275 0.045403663 0.080685616 0.32354158
000370 44 77 5a 3e b1 8f 06 3e fd 73 07 3e 61 4a 2e be
       0.21334559 0.13140751 0.1322784 -0.17020561
000380 01 8c 1c bd 4a df 2c 3c a1 f0 97 bc 7c 20 35 bd
       -0.038219456 0.010551283 -0.018547358 -0.044220433
000390 40 34 ef bc dd 02 bc bd 59 14 f1 bc 92 03 3c bd
       -0.02919972 -0.09180234 -0.029428648 -0.045901842
0003a0 fe 8a 8d 3b 6f 84 e9 bc 70 dc 08 3e 34 7e 02 3d
       0.0043195477 -0.028505532 0.1336534 0.031858638
0003b0 94 ef 62 3e d7 62 e3 b8 fc cc a4 3d e4 e0 0a be
       0.22161704 -0.00010842614 0.0804691 -0.13562351
0003c0 1b ec 83 bd a4 b2 b0 bd 0b 99 57 bd 18 f8 aa b8
       -0.06441518 -0.08627823 -0.052636188 -8.152443e-05
0003d0 61 b1 b4 bc 6f 24 50 bd c9 81 cc bc 5d 39 32 bd
       -0.022057237 -0.050815996 -0.02496423 -0.043511737
0003e0 c7 4f a9 3b 7d 5e 33 bc cf 47 20 3d fe de 5f bd
       0.005166981 -0.010947821 0.039130982 -0.05465602
0003f0 5e cc f0 3d af b2 22 bd 1a 34 87 3d 53 5e 74 be
       0.1175773 -0.039721187 0.066017345 -0.23864107

in_proj_weight f4 [6, 2]
000000 98 b6 ae 3d ae 62 71 3e 91 19 dd 3d 03 7f a9 bd
       0.08530921 0.235728 0.10795892 -0.08276179
000010 1c 10 2c bc f7 08 cf 3d da 3a 14 3d cf eb 96 be
       -0.010501888 0.10109132 0.036188938 -0.29476783
000020 b3 b5 90 3e 99 1e 56 bf fd b9 5e 3e 09 92 1c bf
       0.28263626 -0.8364044 0.21750636 -0.6116033

in_proj_bias f4 [6]
000000 5b e2 86 3d d7 a5 7a 3e 67 0a 8e bd eb 9c bd bd
       0.06586143 0.24477325 -0.06935578 -0.09258445
000010 e7 8d 2d 3d 46 11 be be
       0.042371657 -0.37122554

weight f4 [2, 2]
000000 21 df 52 3e e6 24 a2 3e a5 4b e6 be f1 7e 83 3e
       0.2059293 0.31668776 -0.44979587 0.25682786

bias f4 [2]
000000 f3 7e da be 13 9b b5 bd
       -0.4267498 -0.08867469

weight f4 [2, 2, 3]
000000 7b 4e 25 3e 64 3e 86 3d d6 89 a3 bd 83 7d b7 bd
       0.16143219 0.06554869 -0.079852745 -0.08959486
000010 e2 77 25 bc ce 6d c2 3e 93 12 8c 3b 2e fd 1f 3e
       -0.010099383 0.379744 0.004274675 0.15623924
000020 7d d6 e8 be 62 f5 ad be 13 9f f3 bc 8e 63 dc bd
       -0.45476142 -0.33976275 -0.029738938 -0.10761176

weight f4 [2]
000000 45 0a 08 3f c4 b1 5e 3f
       0.5314067 0.8699

bias f4 [2]
000000 76 54 54 3f 6e 83 53 3f
       0.8294138 0.8262242

running_mean f4 [2]
000000 be 6a 02 be ed 7e 70 3e
       -0.12736031 0.23485918

running_var f4 [2]
000000 f3 f4 3f 39 c4 5a 0e 3b
       0.0001830643 0.002172158

weight f4 [2, 2, 3]
000000 c9 97 a1 be 84 ff fc bd aa b0 4e be 2f 8b cb 3e
       -0.31561115 -0.12353423 -0.2018458 0.39754626
000010 5d a7 c9 bd 8e dc 6f be 4e 1e ee bd a8 db 66 3e
       -0.09846375 -0.23423979 -0.11626874 0.2254473
000020 fa 2d 96 3c 23 81 a0 3e a8 a3 93 3e 89 21 ab 3e
       0.01833247 0.31348523 0.28835797 0.33424023

weight f4 [2]
000000 8a b3 83 3f 6d 17 6a 3f
       1.0289166 0.91441995

bias f4 [2]
000000 17 d9 19 bd 08 52 a4 be
       -0.03756055 -0.32093835

running_mean f4 [2]
000000 a7 bb dc be c9 ce 7f 3f
       -0.43111917 0.99924904

running_var f4 [2]
000000 46 1a 7d 3d 3b e5 c7 3c
       0.061792634 0.024401298

weight f4 [2, 2, 3]
000000 af 89 b9 be 84 8c 99 3d c4 c7 bc bd dc fe ea ba
       -0.36237857 0.07497504 -0.0921779 -0.0017928737
000010 f6 65 80 3f 8c 2d e6 3c 55 9d 85 3f 1e f5 90 bd
       1.0031116 0.02809789 1.0438639 -0.070780024
000020 95 c8 ce bd 41 49 b6 bb 0b c3 40 be a2 29 05 3d
       -0.10096852 -0.0055629318 -0.18824403 0.032510407

weight f4 [2]
000000 33 5b 68 3f 0d e2 4c 3f
       0.9076416 0.80032426

bias f4 [2]
000000 a5 f1 2d be 46 9b 1d bf
       -0.16986711 -0.61565053

running_mean f4 [2]
000000 7a 47 4d 3d 7e a1 f5 3d
       0.050116993 0.11993693

running_var f4 [2]
000000 04 64 93 3d 9a 1b 4f 3d
       0.07196811 0.050563432

weight f4 [2, 2, 3]
000000 0a 36 6c 3d 0f 84 b0 bc 01 99 35 3e ab b9 ab 3e
       0.057668723 -0.021547345 0.17734148 0.3354009
000010 72 b6 d5 3e 05 bf 5a be b4 b9 c9 3e b5 c6 6f 3e
       0.41740757 -0.2136193 0.39399493 0.23415644
000020 22 e7 4e 3d 02 4f 02 3f 7d 89 a0 bd 9f 00 d4 3c
       0.050513394 0.50901806 -0.07838724 0.025879202

weight f4 [2]
000000 a9 1a 36 3f f8 c4 48 3f
       0.7113443 0.7842555

bias f4 [2]
000000 1f e4 1b 3f 2a 54 f3 3d
       0.6089496 0.118812874

running_mean f4 [2]
000000 39 70 e7 3d cd 9a 5c 3e
       0.11300702 0.21543427

running_var f4 [2]
000000 88 dd c6 3d 8b d7 32 3e
       0.097102225 0.17465036

weight f4 [2, 2, 3]
000000 43 f1 17 bf 40 1a fc 3e f5 f3 2a 3e 30 81 b3 bc
       -0.5935251 0.49238777 0.16694625 -0.021912187
000010 b5 f6 4c bd b0 20 5d be d9 e1 a3 be ee 94 7e 3e
       -0.050039966 -0.215945 -0.32008246 0.248615
000020 d9 4d f4 bd 0c 66 40 be 7f e6 8d 3d e3 0f 87 be
       -0.11928911 -0.18788928 0.06928729 -0.26379308

weight f4 [2]
000000 fd 0d 3a 3f af 25 40 3f
       0.72677594 0.750575

bias f4 [2]
000000 65 09 26 3f 3c d9 4b 3f
       0.64858085 0.7962835

running_mean f4 [2]
000000 24 d9 0b bd 16 3a 69 be
       -0.03414263 -0.22776064

running_var f4 [2]
000000 90 e6 76 3e ad 2f f5 3d
       0.2411139 0.11971984

weight f4 [2, 2, 3]
000000 c2 01 a5 3d 21 73 88 bc a7 90 1d bf 79 60 90 3d
       0.08056976 -0.01665646 -0.61548847 0.07049651
000010 48 f8 02 3d c6 30 06 bf 73 e1 74 3d f4 a1 d8 be
       0.03197506 -0.5241817 0.059785318 -0.4231106
000020 81 96 be bb 8c f2 ff 3a 9c fb 4c 3f ea 65 c9 3d
       -0.0058162813 0.0019527241 0.80071425 0.09833892

weight f4 [2]
000000 ca 75 99 3d d5 e7 10 3e
       0.074931696 0.14150937

bias f4 [2]
000000 a4 bf 12 3e 37 6b 93 3d
       0.14330918 0.07198184

running_mean f4 [2]
000000 b2 d2 41 bf 87 e7 08 3f
       -0.7571212 0.5347828

running_var f4 [2]
000000 03 a6 83 3e 25 9e d2 3d
       0.25712594 0.1028407

weight f4 [32, 64]
000000 ff cc 7b 3d 7d b4 62 bd 12 71 05 bd 9e 65 ce 3c
       0.061474796 -0.05534791 -0.032578535 0.02519494
000010 d6 87 2d bb 1b d9 b8 3c 66 9d 68 3d 57 c1 dc 39
       -0.002647867 0.022564461 0.05679073 0.0004210572
000020 b8 a0 f4 bc 39 bf ee bc 22 c6 65 bd 55 11 66 bd
       -0.029861793 -0.029143916 -0.056097157 -0.056168873
000030 16 f4 4d 3c b4 93 a1 3d dd 46 1a 3d 66 a3 54 3c
       0.012570402 0.078895 0.037665237 0.01297841
000040 47 3e f3 3c c5 06 b8 3c 56 73 93 bc 2f f7 6a bc
       0.029692782 0.022464165 -0.017999332 -0.01434116
000050 2e ab 63 bd c6 e2 a6 3d 8a f3 01 bd 59 1b 95 3c
       -0.05558317 0.08148722 -0.031726398 0.018201517
000060 ce a0 83 3d 63 41 3d 3d 30 1e 15 bd 0e 1f 71 bc
       0.064271554 0.046204936 -0.036405742 -0.014716877
000070 f0 21 8e 3d b9 77 9c bd b5 1c 61 bc d4 69 d5 bd
       0.06940067 -0.07640023 -0.013739754 -0.10420576
000080 d2 b8 ee bb 38 d0 99 bd f9 a6 0c bc 2a c4 0e 3d
       -0.007285216 -0.07510418 -0.008584731 0.034855045
000090 09 0c 4f 3b 07 8b a3 3b a4 a6 1e 3d 77 fc 1e bd
       0.0031592867 0.0049909386 0.03873314 -0.038814988
0000a0 e8 c7 25 bc e3 e0 fe bc 7d 47 38 3c 58 82 d6 bc
       -0.010118462 -0.031113094 0.011247513 -0.0261852
0000b0 53 d6 c8 bc 5d 2e 0a 3d 92 29 7f 3d 82 43 33 3d
       -0.02451626 0.03373562 0.062295504 0.043765552
0000c0 a4 36 87 bc 93 28 53 bd c2 3c 84 3d 7c b2 68 bc
       -0.016505547 -0.051552366 0.06456901 -0.01420271
0000d0 c4 1d 0e bc 68 80 d6 3a ef 4f 78 3d bc f5 8b bc
       -0.008674089 0.0016365172 0.060623106 -0.017084949
0000e0 1d 65 e7 3c b6 36 0e bc 68 e8 22 3c 02 9d 1d 3b
       0.028246457 -0.008680036 0.009943105 0.0024049883
0000f0 bf e0 53 bd fc 9e 71 bc eb 32 ad 3d ed 32 c7 3c
       -0.051728006 -0.0147473775 0.084569775 0.024316275
000100 4f 22 df 3d 02 05 8e 3c 1d d7 ce 3c 37 7a 29 3c
       0.10895216 0.017336372 0.025249058 0.01034408
000110 d3 56 56 3c 3d 8b 9d 3d a9 29 b6 bd db ff 79 3c
       0.013082224 0.07692573 -0.08894665 0.015258755
000120 a2 87 2d 3d 46 c3 89 3d 2d 49 c6 3d b3 83 76 bd
       0.042365678 0.067266986 0.09681926 -0.060184192
000130 b7 89 b4 3d ba e2 33 bc d6 d1 7e 3d 32 86 64 3c
       0.088153295 -0.010979349 0.062211834 0.01394801
000140 ea 76 a1 ba 0c 98 03 3c 3c e0 df 3d e5 0c 01 3d
       -0.0012318764 0.008031856 0.10931441 0.031506438
000150 1a a2 47 bd 70 60 21 be 8d 7b 51 3a 12 79 42 bd
       -0.048738576 -0.15759444 0.0007991128 -0.047478743
000160 2a c5 f0 3d b1 eb e9 3c c9 22 f5 3d 1e cd 3b 3d
       0.11756356 0.02855477 0.11969525 0.045849912
000170 ae 24 db bd 80 4b d5 bd 8c ba f2 bb 67 98 1c be
       -0.107003555 -0.10414791 -0.007407492 -0.15292512
000180 20 db 06 3c 97 18 a7 bd f5 31 16 3d 65 5b 72 3d
       0.008230954 -0.08158987 0.036668736 0.059169192
000190 6e f0 30 3b ad 23 61 bc 52 f1 96 3d 68 e7 93 3c
       0.0026998776 -0.013741416 0.07370247 0.018054679
0001a0 46 af cc bb 24 75 3a 3d 1d c5 26 bd ef a2 55 bc
       -0.00624648 0.04552187 -0.040715326 -0.013039335
0001b0 97 df bc 3b 79 7d 0d bc 37 e9 ba 3b d4 48 98 bb
       0.0057639587 -0.008635872 0.005704071 -0.0046473537
0001c0 36 5b 9a bc 06 d6 aa bd 55 a2 29 bd ea c7 40 3d
       -0.01884232 -0.08341603 -0.041414578 0.047065653
0001d0 b3 24 61 bd 8b 29 73 3b 50 ff 7d bd 87 f2 ae bc
       -0.05496664 0.003710362 -0.062011063 -0.02135588
0001e0 a9 44 4e bd 67 e7 bd 3d 47 16 80 3d ec ea 3a 3c
       -0.05035845 0.09272652 0.06254249 0.011408549
0001f0 3d 55 bb 3d 50 73 c0 3d a8 60 56 be bb 82 a1 bc
       0.09147117 0.09396994 -0.20935309 -0.019715657
000200 af 16 04 bb fe 43 41 3d 82 21 cf 3d 34 f5 1a bd
       -0.0020155122 0.047183983 0.10113813 -0.0378315
000210 18 4d 90 3d f2 5e 75 bd 9a d8 da 3d 99 96 03 3e
       0.070459545 -0.059905 0.10685845 0.12850417
000220 39 4e 88 3d e5 1b f9 3d 54 01 03 3e fc 7a d1 bd
       0.06655545 0.121635236 0.12793475 -0.102285355
000230 77 e0 e5 bd 8c 9e 1b bd ec 82 9d bd 92 67 43 bd
       -0.11224454 -0.037993 -0.07690987 -0.047706194
000240 d6 ff 07 bd 91 68 ac 3c f5 92 1f 3e 8f 40 b0 3b
       -0.03320297 0.021045955 0.15583403 0.0053787897
000250 b4 08 86 bd 88 df 94 bc 55 5d fe 3d 24 6b 6f 3c
       -0.06544629 -0.018172994 0.124201454 0.014612947
000260 22 09 45 be b3 a4 b2 bd b4 b5 a3 bd fd be 6d bd
       -0.19241765 -0.0872282 -0.079936415 -0.05804347
000270 6c f6 1d 3e f4 b1 3e 3e 24 d8 0c 3b 0b 9e 5d be
       0.15426034 0.18622571 0.0021491135 -0.2164232
000280 84 dd 46 3d 22 61 8b 3c 9b 26 cb 3c 60 8c 85 3d
       0.048551098 0.01701409 0.024798682 0.06520915
000290 3a 3a 9d bb af 58 c8 3c 51 0d 67 bc 94 99 ea 3b
       -0.004798201 0.02445635 -0.014102296 0.007159421
0002a0 e6 b4 d8 bd d8 bc 74 3d 7c 39 2f bd 0d 75 9a 3d
       -0.10581379 0.059750408 -0.04277943 0.07541857
0002b0 57 95 be 3b 70 19 c8 3c cc 41 dd 3c 18 cd 12 3d
       0.0058161425 0.024426192 0.027008913 0.035840124
0002c0 82 6a 47 3c 66 29 51 bd 24 1c cb 3c 4c 2b 30 3d
       0.01217139 -0.05106487 0.024793692 0.04301004
0002d0 70 4d 80 3a 1a 78 f4 3c 5a 6c 92 bc a7 3f 17 3e
       0.0009788703 0.029842425 -0.017873932 0.14770375
0002e0 a1 a3 2f 3d be a5 0a be db 6c 0a be d4 41 79 bc
       0.042880658 -0.13539788 -0.13518088 -0.015213449
0002f0 bc 65 d7 bd 35 b0 30 be 96 2f 24 3e 6d f3 89 3b
       -0.10517451 -0.17254718 0.16033778 0.004209927
000300 6c d2 8e be 9a 93 8c bd 5b 9c 4e bd 32 ca 61 be
       -0.27894914 -0.0686409 -0.05044208 -0.22049788
000310 3a 01 02 3e 10 01 a3 bd a6 15 88 3d 89 e0 b3 bd
       0.1269578 -0.07959187 0.06644754 -0.08783061
000320 10 36 9a 3c 9a ae e7 3d 29 44 b3 bd ba 67 18 be
       0.018824607 0.113125995 -0.08753235 -0.14883319
000330 a3 1a 08 be e6 ae 27 be c5 e8 8a 3b 04 84 77 3d
       -0.13291411 -0.16375312 0.004239174 0.060428634
000340 4a 12 9c bc 6b 55 d4 3c bb 32 3f 3e 66 11 17 3e
       -0.01905169 0.025919637 0.18671696 0.1475273
000350 63 0b 29 bd 3e 3a db bd 05 99 e2 bd 1b 88 97 bc
       -0.041270625 -0.10704468 -0.110643424 -0.018497517
000360 96 3a 94 bd 88 d0 1a 3d c3 13 43 bd 76 18 fe 3c
       -0.07237737 0.037796527 -0.047626268 0.031017523
000370 2c 23 d7 bd 98 55 6f be 81 20 e3 3c 91 f7 17 3e
       -0.105047554 -0.23372495 0.02772546 0.14840533
000380 43 d1 d6 bc 7e a8 82 bd 4c 71 d7 3d f2 de cf 3b
       -0.02622283 -0.063797936 0.105196565 0.006343716
000390 48 be 8c bc 85 38 8b 3d e4 0f 8b bd 90 9c 4b 3d
       -0.017180577 0.067978896 -0.0679014 0.049709857
0003a0 31 71 48 3c 34 fe 4a bd 8e a2 61 3b f3 3e 4c bd
       0.012234018 -0.049558833 0.0034429166 -0.04986472
0003b0 e9 0b 45 3d 89 19 8d 3d 47 33 39 3d d4 95 37 3b
       0.04810706 0.06889636 0.045214918 0.0028012889
0003c0 87 ca 41 bc 6e 32 b6 bc 14 d8 b4 bd d3 f5 8b 3d
       -0.011828071 -0.022240844 -0.08830276 0.068339966
0003d0 0b a8 90 3d 27 3c e8 bc 99 53 70 bd 62 77 80 bb
       0.07063302 -0.028348995 -0.058673475 -0.0039204815
0003e0 27 e6 15 3c b8 f7 05 3d 69 be e3 3c 2d 77 60 3d
       0.009149111 0.032706946 0.027800756 0.054801155
0003f0 f6 fa 2c 3d 4a 52 d9 3d 7d ec 99 3d 00 56 b9 3d
       0.042231523 0.106113985 0.0751581 0.09049606
